outputs/mlp_mnist/best_model.pth (torch, 205672 bytes, 4 tensors)

fc1.weight f4 [64, 784]
-0.011980419 0.009785512 -0.020768508 -0.03682718 0.009349691 0.011044692 -0.032053586 -0.051969472
-0.010987995 0.0005251996 -0.047881227 -0.010474308 -0.011137964 -0.0030816372 0.010305901 -0.001659563
-0.0050977264 -0.031849045 -0.01900756 0.01520018 -0.017685998 -0.007577683 -0.019108199 -0.0228151
-0.02429685 -0.025566317 -0.023249831 -0.02649457 -0.0060480386 -0.02304772 -0.05279245 -0.010697067
-0.017664913 0.012791236 -0.04902297 0.010638562 -0.015732475 -0.04537457 -0.051006865 -0.028165996
-0.05262069 -0.0315308 -0.07065136 -0.03714405 -0.039501537 0.0036861505 -0.036665365 -0.028761137
-0.0040273396 -0.047583852 -0.008028436 -0.028277017 -0.024926059 -0.037485104 -0.052423958 -0.033159513
-0.041640867 -0.041902196 0.0048180157 -0.054861616 -0.05111463 -0.049576413 0.011544585 -0.053282794
-0.0008925521 0.011429075 -0.06473374 -0.023720711 -0.04051708 -0.024359679 -0.042051848 -0.09633502
-0.08757091 -0.09195257 -0.0029804031 -0.018467845 -0.053716514 -0.033825517 -0.046894744 0.0026750376
-0.01257102 -0.04705691 -0.042307008 -0.009248163 -0.054087568 -0.029042382 -0.021832027 -0.0022071002
-0.02712465 0.013916674 0.008519964 -0.039562915 -0.082445644 -0.076645516 -0.07449963 -0.16253488
-0.25615096 -0.1907275 -0.09986436 -0.046827614 -0.10816463 0.09738865 0.25404578 -0.15281357
-0.015024687 0.11676877 0.15193374 0.12118006 0.0010091029 0.0020972032 -0.02218099 -0.032213084
-0.053520773 -0.0012067026 -0.0011161277 -0.04070299 -0.00037887215 -0.07251102 -0.04966614 -0.108041495
-0.16515508 -0.044663478 0.009404976 0.09094578 0.21525407 0.5132474 0.93572783 0.7581157
0.8139221 0.41920996 0.2113579 0.08435273 0.010584408 -0.07023454 0.08243655 -0.030153263
0.07047697 0.042492036 0.0037787901 0.012046717 -0.048293244 0.008235766 -0.013567885 -0.017357945
-0.060491815 -0.1090272 -0.14674686 -0.11717789 -0.26958567 -0.0710056 -0.14939797 0.30158782
0.71816826 0.48900083 0.4342801 0.14670111 0.012769716 0.50879484 0.6663886 0.94548583
1.1474514 0.65388435 -0.010158862 -0.5449777 -0.1166825 0.21330309 -0.012372764 -0.026761714
-0.032249413 -0.0242208 -0.03992481 -0.1530584 -0.17230181 -0.19423214 -0.36269155 -0.512124
-0.18423547 -0.06544121 -0.25453934 -0.09856449 0.18943493 0.18496285 0.27714616 0.78222
0.18431772 -0.024364814 -0.31457472 0.030243568 -0.12602252 -0.020371228 -0.18801394 0.25561544
0.037073072 0.32912526 -0.10422278 -0.023539575 -0.05027936 -0.016989294 -0.0671995 -0.11857214
-0.1698474 -0.1614604 -0.1735034 -0.4337354 0.0660979 -0.092854984 -0.2359207 -0.53796256
-0.07698402 -0.06479957 -0.4547976 1.4194183 1.1276819 0.20416494 0.5093121 -0.16123687
-0.3741621 -0.0049983333 -0.04791827 0.32565165 0.56494194 0.31504473 -0.013687259 -0.033200208
-0.0391951 -0.035905287 -0.025498262 -0.1547873 -0.106839545 -0.06619467 0.36148086 0.005480986
0.37745392 0.17171854 0.14568454 0.05025053 0.52054405 0.6578261 -0.14693435 0.1460625
0.47052756 -0.20589836 0.2552706 -0.024677308 -0.45755735 0.2406267 0.10334686 0.45586327
0.810998 0.45998782 0.0890583 0.053732578 -0.036032487 -0.049419615 -0.04465954 -0.13741548
00000000: 8549 44bc 6a53 203c b822 aabc 19d8 16bd
00000010: 722f 193c ccf4 343c 9f4a 03bd f1dd 54bd
00000020: fe06 34bc 8cad 093a 1b1f 44bd 6f9c 2bbc
00000030: 027c 36bc 4bf5 49bb 15da 283c b285 d9ba
00000040: d40a a7bb 2574 02bd beb5 9bbc 2d0a 793c
00000050: 3ae2 90bc 364e f8bb cc88 9cbc bce6 babc
00000060: 300a c7bc 7470 d1bc 6e76 bebc 240b d9bc
00000070: a02e c6bb 92ce bcbc e53c 58bd c042 2fbc
00000080: 02b6 90bc 5592 513c 4fcc 48bd 5d4d 2e3c
00000090: 64e1 80bc afda 39bd 93ec 50bd 60bc e6bc
000000a0: cb88 57bd 7126 01bd a9b1 90bd 5c24 18bd
000000b0: 5dcc 21bd 5893 713b 6c2e 16bd 7a9c ebbc
000000c0: c6f7 83bb 49e7 42bd b489 03bc 34a5 e7bc
000000d0: bc31 ccbc fb89 19bd 81ba 56bd 45d2 07bd
000000e0: 9d8f 2abd a3a1 2bbd 72e0 9d3b 93b6 60bd
000000f0: 935d 51bd a310 4bbd 8025 3d3c 0f3f 5abd
00000100: 28fa 69ba 0441 3b3c 2093 84bd f051 c2bc
00000110: 3df5 25bd f38d c7bc 8f3e 2cbd 4c4b c5bd
00000120: 6158 b3bd a151 bcbd de52 43bb e149 97bc
00000130: d905 5cbd a08c 0abd b414 40bd af4f 2f3b
00000140: aef6 4dbc bfbe 40bd 1d4a 2dbd 9b85 17bc
00000150: ed8a 5dbd 4aea edbc 14d9 b2bc ffa4 10bb
00000160: 8434 debc c302 643c 5297 0b3c b90c 22bd
00000170: 43d9 a8bd 53f8 9cbd 4393 98bd 8b6f 26be
00000180: 3826 83be 124e 43be b085 ccbd 50ce 3fbd
00000190: 6b85 ddbd b373 c73d 4a12 823e 297b 1cbe
000001a0: 1b2a 76bc 7724 ef3d 8594 1b3e 402d f83d
000001b0: e043 843a 3b71 093b e8b4 b5bc def1 03bd
000001c0: 9938 5bbd 382a 9eba 084b 92ba 2eb8 26bd
000001d0: 5ca3 c6b9 a880 94bd b96e 4bbd dc44 ddbd
000001e0: 6a1e 29be 0df1 36bd 5417 1a3c c841 ba3d
000001f0: 906b 5c3e 2e64 033f dc8b 6f3f df13 423f
00000200: 335d 503f b0a2 d63e 356e 583e 20c1 ac3d
00000210: 3a6a 2d3c 20d7 8fbd 7ed4 a83d fa03 f7bc
00000220: 3b56 903d 210c 2e3d 94a5 773b 985f 453c
00000230: 23cf 45bd 4eef 063c d64b 5ebc 4032 8ebc
00000240: 44c6 77bd a749 dfbd cf44 16be f6fa efbd
00000250: 2207 8abe 626b 91bd c8fb 18be b869 9a3e
00000260: e0d9 373f 515e fa3e f659 de3e d138 163e
00000270: 1238 513c 6140 023f 7198 2a3f 5c0b 723f
00000280: b0df 923f f764 273f 5b71 26bc a983 0bbf
00000290: 3cf7 eebd 206c 5a3e 22b7 4abc 623b dbbc
000002a0: f617 04bd b36a c6bc 3388 23bd 57bb 1cbe
000002b0: e36f 30be cae4 46be b5b2 b9be 8f1a 03bf
000002c0: 39a8 3cbe 0b06 86bd fb52 82be 2edc c9bd
000002d0: 3bfb 413e e766 3d3e 1ae6 8d3e 923f 483f
000002e0: c9bd 3c3e b898 c7bc f00f a1be 5cc1 f73c
000002f0: 0c0c 01be 90e1 a6bc ba86 40be 07e0 823e
00000300: efd9 173d 1b83 a83e c172 d5bd 11d6 c0bc
00000310: bbf1 4dbd 222d 8bbc e49f 89bd f3d5 f2bd
00000320: 7aec 2dbe e055 25be e0aa 31be 9112 debe
00000330: 565e 873d c12a bebd 3295 71be eab7 09bf
00000340: cca9 9dbd a3b5 84bd 3bdb e8be 80af b53f
00000350: e157 903f 9d10 513e 4762 023f 471b 25be
00000360: 2d92 bfbe 0fc9 a3bb f345 44bd d0bb a63e
00000370: 09a0 103f 8b4d a13e 8640 60bc f1fc 07bd
00000380: 0b8b 20bd 6c11 13bd bbe1 d0bc 9080 1ebe
00000390: b1ce dabd 1291 87bd 0514 b93e d899 b33b
000003a0: a441 c13e fcd6 2f3e 542e 153e 80d3 4d3d
000003b0: 6042 053f 4b67 283f f575 16be 6891 153e
000003c0: fde8 f03e 05d7 52be d4b2 823e 1128 cabc
000003d0: f544 eabe d866 763e 85a7 d33d e966 e93e
000003e0: 919d 4f3f 8683 eb3e 3364 b63d b116 5c3d
000003f0: cd96 13bd 396c 4abd ecec 36bd a5b6 0cbe

fc1.bias f4 [64]
0.05145408 -0.12752387 -0.06116048 -0.006138297 -0.10236124 0.0019210457 -0.03461192 0.0021784082
-0.016028346 0.020202177 -0.1853305 -0.016371664 -0.02936436 0.019401405 -0.13860117 -0.042985074
-0.0010592933 -0.16096058 0.014280882 -0.02158575 0.017629702 0.00457675 -0.017294265 -0.010595728
-0.043992136 -0.14053108 0.012315699 0.013013644 -0.016001042 -0.041562118 0.07686876 -5.3510244e-05
0.013324722 -0.10818427 -0.009131712 0.014217296 -0.013186819 -0.045726657 0.015282593 -0.026334194
-0.15804905 -0.14416125 -0.12185431 -0.036236707 -0.03900999 -0.02889896 -0.049043644 -0.14272718
-0.00893343 -0.026448319 -0.020613465 -0.050499268 -0.033407625 -0.050238386 -0.053643357 -0.03637585
-0.13220744 -0.011637803 -0.006631037 -0.043921635 0.00047184876 -0.015946347 -0.025929846 -0.30828
00000000: 83c1 523d 9e95 02be 6983 7abd c423 c9bb
00000010: c5a2 d1bd 99cb fb3a 3bc5 0dbd a0c3 0e3b
00000020: e14d 83bc 097f a53c 47c7 3dbe de1d 86bc
00000030: 878d f0bc b2ef 9e3c 77ed 0dbe 1e11 30bd
00000040: fcd7 8aba dad2 24be 5cfa 693c 99d4 b0bc
00000050: 2a6c 903c 90f8 953b b4ac 8dbc b499 2dbc
00000060: 1931 34bd 61e7 0fbe c9c7 493c 2e37 553c
00000070: 9e14 83bc 0a3d 2abd 5e6d 9d3d 3070 60b8
00000080: ef4f 5a3c b78f ddbd 2d9d 15bc a9ef 683c
00000090: 870d 58bc e04b 3bbd d763 7a3c cfba d7bc
000000a0: 9cd7 21be 029f 13be c18e f9bd f16c 14bd
000000b0: f0c8 1fbd 83bd ecbc fde1 48bd 1327 12be
000000c0: 855d 12bc 25aa d8bc 92dd a8bc 52d8 4ebd
000000d0: 6fd6 08bd c4c6 4dbd 23b9 5bbd d8fe 14bd
000000e0: 6361 07be 7cac 3ebc 2c49 d9bb 2ce7 33bd
000000f0: 7862 f739 eaa1 82bc d46a d4bc e0d6 9dbe

output.weight f4 [10, 64]
-0.09975284 -0.29478204 0.025327254 0.0012444718 0.11132797 -0.0489159 0.117981695 -0.009805349
-0.052192908 -0.057466358 -0.1981701 -0.0420598 0.0030512481 0.064540684 0.14467244 -0.103508614
-0.05855968 -0.33779013 -0.082697004 0.019268153 0.05370808 -0.07808007 0.057876628 -0.07216573
-0.039602827 0.093240105 -0.021242078 -0.05921011 -0.042931 0.039113194 -0.20296586 0.0023024776
-0.052612912 -0.22931556 -0.044147965 -0.08007246 0.040719353 0.021405578 0.060378835 -0.1491103
0.06295473 -0.21442987 -0.33737117 0.06299167 0.013335755 -0.035669137 -0.2144378 -0.046971723
-0.020490976 0.010859425 0.018902814 0.033428676 -0.014914439 -0.044866186 0.13750225 0.0995108
-0.19632155 0.018770019 0.0015132844 -0.020174287 -0.09885369 -0.025963688 -0.023251759 -0.45744348
-0.110249355 -0.091504514 -0.029304856 -0.117270604 -0.026393944 -0.034073856 0.10578659 0.095638245
0.039518908 -0.08888393 -0.15014774 -0.10316442 -0.012311338 -0.03129235 -2.516909 -0.082465865
0.0062021646 0.15821369 -0.091435276 0.04704327 0.112361304 -0.09283738 0.09084336 0.044051614
-0.016697437 -0.36360756 0.12612887 -0.04491731 -0.12556507 0.015641233 -0.12865967 -0.234422
0.098092526 0.02583512 -0.09430504 -0.071334034 -0.07095719 0.06700448 0.0038684476 0.14674406
-0.19829622 -0.005122401 -0.31584007 0.076881036 -0.024811098 -0.050395027 -0.097872384 -0.22691458
-0.14163144 0.06521496 -0.06762361 -0.027831618 -0.0057564 0.03227481 0.11076117 -0.050505858
-0.23725712 0.054330666 -0.091379344 -0.040691987 0.05065111 0.021255942 0.1080501 0.13819294
-0.1056728 -0.035912707 -0.17450896 0.05612077 -0.14000975 -0.014957203 -0.042906053 -0.13572505
-0.11438482 -0.029207055 -0.07825588 -0.0062441127 0.10435328 -0.14394815 0.025797911 -0.013548479
-0.041205447 0.041403323 0.0838102 -0.057218257 0.0010906637 -0.015482552 -0.04209751 0.06908561
0.070912585 -0.08029934 0.040721163 -0.021830808 -0.13923007 -0.11855781 0.09745153 -0.14694487
-0.098233156 -0.05519519 -0.025676025 -0.06305188 -0.10873262 -0.018767543 0.06162366 -0.073410146
-0.1668138 -0.14271232 -0.30246177 0.10134878 0.09108907 -0.013145019 0.19697219 0.042484447
0.0685222 -0.071239166 0.08397677 -0.035988603 0.07493665 0.08873872 0.049436178 -0.0043211733
-0.45790845 0.12726758 0.059255566 0.059017155 0.05606152 -0.12548363 -0.08733797 -0.18874082
-0.017360471 -0.10777891 -0.053056978 -0.01958868 0.123603456 0.04710506 -0.016802438 0.08288127
0.066715695 -0.07457113 -0.19376828 0.07169451 0.09534014 -0.035691198 -0.102061525 -0.11303806
0.0025749707 -0.18166311 -0.0059697996 0.026090365 0.09830733 -0.0050669494 0.06909035 0.077642575
0.024812132 -0.06198635 -0.03733313 -0.10672345 -0.0536148 0.008448203 0.0028398444 -0.14531183
0.0447043 0.10778295 0.047489364 -0.077949956 -0.13443103 -0.106608875 0.010085288 0.1656268
-0.13303144 -0.04852986 0.10702905 -0.039609235 0.08963379 -0.050134912 0.09068119 -0.024017815
-0.07861115 -0.08192518 0.03461021 -0.12658736 -0.11567585 -0.07999014 0.03663538 -0.1374509
0.060797825 -0.069302455 0.09875022 -0.09601975 -0.12060574 -0.1120742 0.09646843 -0.16736464
00000000: 384b ccbd aced 96be 1a7b cf3c 8b1d a33a
00000010: ebff e33d 0a5c 48bd 63a0 f13d 9da6 20bc
00000020: 3bc8 55bd d861 6bbd 1aed 4abe e646 2cbd
00000030: 73f7 473b e82d 843d 0325 143e 53fc d3bd
00000040: 46dc 6fbd d4f2 acbe 0c5d a9bd 3fd8 9d3c
00000050: 01fd 5b3d 72e8 9fbd 0b10 6d3d a0cb 93bd
00000060: 9336 22bd abf4 be3d de03 aebc 4d86 72bd
00000070: 6bd8 2fbd 2835 203d 48d6 4fbe 2ae5 163b
00000080: a380 57bd b3d1 6abe 7fd4 34bd 08fd a3bd
00000090: 56c9 263d c05a af3c cc4f 773d 5fb0 18be
000000a0: 69ee 803d 8193 5bbe eabb acbe c701 813d
000000b0: 367e 5a3c cd19 12bd 9595 5bbe 6c65 40bd
000000c0: b1dc a7bc bbeb 313c 13da 9a3c 82ec 083d
000000d0: b15b 74bc 9bc5 37bd 64cd 0c3e 51cc cb3d
000000e0: 8408 49be 95c3 993c 6659 c63a 8c44 a5bc
000000f0: ce73 cabd cdb1 d4bc 797a bebc 0836 eabe
00000100: 6aca e1bd b866 bbbd bd10 f0bc 922b f0bd
00000110: 1d38 d8bc 0791 0bbd a4a6 d83d fcdd c33d
00000120: 94de 213d c708 b6bd 54c0 19be de47 d3bd
00000130: 7fb5 49bc 682c 00bd 0915 21c0 dde3 a8bd
00000140: 873b cb3b c502 223e 6b42 bbbd 72b0 403d
00000150: af1d e63d 8621 bebd 150c ba3d 776f 343d
00000160: 10c9 88bc c52a babe ed27 013e 37fb 37bd
00000170: 2194 00be 0b22 803c 5cbf 03be 520c 70be
00000180: bce4 c83d 2ca4 d33c 0023 c1bd 9417 92bd
00000190: 0152 91bd a539 893d c885 7d3b 1344 163e
000001a0: 2a0e 4bbe d0d9 a7bb cab5 a1be ce73 9d3d
000001b0: a540 cbbc 046b 4ebd 5171 c8bd 4c5c 68be
000001c0: d507 11be 6c8f 853d 3f7e 8abd 22ff e3bc
000001d0: 2fa0 bcbb 9732 043d c1d6 e23d 3bdf 4ebd
000001e0: 88f3 72be d589 5e3d 1825 bbbd a4ac 26bd
000001f0: 8a77 4f3d f120 ae3c 5f49 dd3d 7382 0d3e
00000200: fb6a d8bd 3419 13bd 7ab2 32be e4de 653d
00000210: b75e 0fbe 0e0f 75bc 42be 2fbd 82fb 0abe
00000220: 9742 eabd a243 efbc 9e44 a0bd 6a9b ccbb
00000230: 2cb7 d53d 2567 13be 2456 d33c 71fa 5dbc
00000240: 0bc7 28bd 8896 293d afa4 ab3d b15d 6abd
00000250: 9af4 8e3a 88aa 7dbc 706e 2cbd c27c 8d3d
00000260: 9e3a 913d fb73 a4bd 3ccb 263d 86d6 b2bc
00000270: 5492 0ebe 70ce f2bd ab94 c73d b778 16be
00000280: 772e c9bd 5a14 62bd 8756 d2bc 5821 81bd
00000290: 35af debd 64be 99bc 1769 7c3d 0f58 96bd
000002a0: 3dd1 2abe 2e23 12be 45dc 9abe f38f cf3d
000002b0: e88c ba3d 355e 57bc 14b3 493e 2c04 2e3d
000002c0: 5e55 8c3d d7e5 91bd 03fc ab3d c968 13bd
000002d0: 6378 993d a5bc b53d 977d 4a3d a198 8dbb
000002e0: fa72 eabe 6f52 023e f7b5 723d f9bb 713d
000002f0: c4a0 653d c87e 00be 40de b2bd 4645 41be
00000300: 8c37 8ebc 30bb dcbd 4652 59bd 7078 a0bc
00000310: cf23 fd3d 3cf1 403d 44a5 89bc a8bd a93d
00000320: 3da2 883d c0b8 98bd 316b 46be 92d4 923d
00000330: b141 c33d ef30 12bd a205 d1bd 8080 e7bd
00000340: d7c0 283b e505 3abe 4f9e c3bb 76bb d53c
00000350: 5a55 c93d a708 a6bb 3e7f 8d3d 1203 9f3d
00000360: d042 cb3c 66e5 7dbd a0ea 18bd d391 dabd
00000370: 319b 5bbd 556a 0a3c af1c 3a3b a0cc 14be
00000380: db1b 373d 4fbd dc3d 3584 423d 3aa4 9fbd
00000390: 4aa8 09be c155 dabd c43c 253c 129a 293e
000003a0: 6539 08be 3fc7 46bd 0c32 db3d 4b3d 22bd
000003b0: ec91 b73d 445a 4dbd 0fb7 b93d 02c1 c4bc
000003c0: e2fe a0bd 64c8 a7bd 70c3 0d3d 1ea0 01be
000003d0: 76e7 ecbd dfd1 a3bd fb0e 163d eebf 0cbe
000003e0: 2407 793d 72ee 8dbd 8e3d ca3d 01a6 c4bd
000003f0: 2400 f7bd 2887 e5bd 3d91 c53d a361 2bbe

output.bias f4 [10]
1.0844927 -0.3920023 -1.505521 0.08293495 -0.5860644 -0.5027492 -0.8438722 -1.6664685
2.6291115 1.266018
00000000: a8d0 8a3f 87b4 c8be eab4 c0bf cdd9 a93d
00000010: 5108 16bf 2cb4 00bf 0208 58bf d74e d5bf
00000020: 5d43 2840 e10c a23f
